BananaNavigation/basicDQL.pth (torch_old, 19630 bytes, 6 tensors)

fc1.weight f4 [64, 37]
000000 cb d4 74 3d 58 c0 b5 3c b3 c4 9f 3d 53 c6 c3 3d
       0.059773248 0.022186443 0.07801189 0.09559312
000010 70 d5 41 3d 3d d9 cc bd 5b 67 d5 3c 9e 14 ad 3d
       0.04732269 -0.100023724 0.02605026 0.08451198
000020 5b eb aa 3d cc 23 00 3e 2f 19 65 bb 89 43 58 3d
       0.08345672 0.12513655 -0.0034957638 0.05279878
000030 eb 46 20 3c 8b 93 b3 3c 12 70 b1 3d 98 86 15 bd
       0.009782533 0.02192094 0.08663954 -0.03650531
000040 40 ee 9a 3d 7b 6e 20 3b 68 de 0f 3d 46 cd 2a 3d
       0.07564974 0.0024479914 0.035124213 0.04169967
000050 66 34 ca 3e 41 3d 31 bf 08 4d 35 bf 5d 0d 4b bf
       0.39493102 -0.6923409 -0.70820665 -0.79317266
000060 fb 23 fe bf 39 85 be bd b5 7c 0c 3d 9b c2 98 3d
       -1.985473 -0.09302754 0.034298617 0.07458993
000070 b4 e7 34 3d ef a4 da 3d 45 11 3d be 19 e2 4f bc
       0.04416628 0.1067599 -0.18463619 -0.012688183
000080 8c b9 e1 3a 6f d1 9f 3d d3 7f 48 3e 5b 43 07 bc
       0.0017221435 0.07803618 0.19580011 -0.008255805
000090 79 62 22 bb ce 5c 35 3e 42 28 41 3e 36 d4 f6 3d
       -0.0024777933 0.17711183 0.18863013 0.12052195
0000a0 1d 36 1b 3d 67 49 c6 bd b3 34 e8 3e 05 17 45 bf
       0.037893403 -0.09681969 0.45352706 -0.7698825
0000b0 f6 d1 62 bf b7 a9 08 bf 19 71 15 c0 2f 78 75 3d
       -0.88601625 -0.53383964 -2.335028 0.05992907
0000c0 69 80 1b 3e 57 6b ce 3d a0 ad 11 3e 12 09 86 3d
       0.15185703 0.10079067 0.14226389 0.06544699
0000d0 1b 02 50 3c 54 1c c6 3c 9f 0a e3 bc f0 ae 87 bd
       0.0126958145 0.02418343 -0.027715025 -0.066251636
0000e0 71 82 d6 3d 01 2b 35 bd ae 65 d3 3d c2 7a d3 3d
       0.104740985 -0.044230465 0.10322128 0.103261486
0000f0 cf 1b bc 3d 71 54 1d 3e 44 90 41 3d 87 8f 8f 3c
       0.091849916 0.15364243 0.047256723 0.017524494
000100 8f 60 7d 3c 32 d3 9f 3d 25 e6 cc bd a3 8e c9 3c
       0.015464916 0.07803954 -0.10004834 0.024604147
000110 a5 23 30 3e 0d 4e 13 3e 55 10 c3 3d 2a 91 98 3e
       0.17201097 0.14385243 0.095245995 0.2979825
000120 53 f9 cc 3b 9c db 6d 3c c6 a2 2b 3d 49 34 7c 3e
       0.0062553077 0.014517691 0.04190328 0.2462932
000130 57 cb 07 3e b5 cc 11 3e e8 e9 26 3e 6f 8b f8 bc
       0.13261162 0.14238246 0.16300166 -0.030339925
000140 f0 8c b5 bd 5e 38 5a 3e 6d 98 c7 3b 32 83 10 3f
       -0.08864772 0.21310565 0.0060911686 0.5645019
000150 6d ad 19 3e 86 e5 29 3d be 87 93 bd 02 a2 0c 3e
       0.15007563 0.041478656 -0.07203625 0.13733676
000160 12 eb 7b 3d 02 fc a3 3d bc c4 d8 3c 7c 0b 48 3e
       0.061503477 0.08007051 0.026460998 0.19535631
000170 a4 5d c8 3d 4c 3e 65 3d da 47 86 3e 5c 57 5c 3d
       0.097834855 0.055967614 0.26226693 0.05379425
000180 9f af 46 3e cc cf b4 bd 44 a7 c5 be c7 3e 1a 3e
       0.19402932 -0.088286966 -0.38604176 0.1506301
000190 b4 09 9c 3d ce 28 9b bc d4 d0 af bd d7 7c 11 bd
       0.07619038 -0.018940356 -0.08584753 -0.035519447
0001a0 7f 80 0a bb 0a c6 1b 3d ee 4a 55 3c a8 84 49 be
       -0.0021133719 0.03803066 0.013018353 -0.1967951
0001b0 82 88 e6 bd ad 52 c4 bc b1 b2 89 bc ba f7 6e 3e
       -0.112565055 -0.023965204 -0.01680884 0.23336688
0001c0 2e 32 ec bd b0 da 34 be 07 90 dd bd 79 99 22 bf
       -0.115330085 -0.17661548 -0.10818487 -0.6351543
0001d0 53 d7 24 3d 7e cc ec bd 1f f8 1d 3c b6 06 83 3e
       0.04024441 -0.11562441 0.009641676 0.25591058
0001e0 bc c3 41 3d b4 25 34 3d ac 5a 51 3d 10 63 90 3d
       0.047305807 0.04398127 0.051111862 0.07050145
0001f0 ed 6e c4 3c ef 73 98 bd ca 8c 92 3e 89 ea 4c be
       0.023978675 -0.074439876 0.2862304 -0.20011343
000200 ea df 97 bd f2 ac 00 be 21 10 94 bf f5 a6 ad bc
       -0.07415755 -0.12565973 -1.1567422 -0.021197775
000210 e2 6c 16 3c 77 b2 a6 bd c1 73 39 3d 95 a6 ed bd
       0.009181233 -0.08139508 0.045276407 -0.116040386
000220 e6 c3 1d be d8 96 40 3d 4a 4d 11 3e 2c e6 70 3e
       -0.1540676 0.047018856 0.1418964 0.23525304
000230 23 4e fb 3e 34 aa 6d 3d 02 18 22 bd 7f 70 4f 3d
       0.4908305 0.058023646 -0.039573677 0.050644394
000240 9d c5 ea 3c ff 16 d9 3c a7 54 0b 3b 73 c1 85 bd
       0.028658682 0.026500223 0.0021260174 -0.06531038
000250 96 49 c7 3d 69 28 a0 3c 7a 34 2a bd 45 80 81 bd
       0.09730832 0.019550519 -0.04155395 -0.063232936
000260 36 cc 83 be 2e 10 80 be 74 86 c0 bb b9 26 6c 3e
       -0.25741738 -0.25012344 -0.005875403 0.23061647
000270 bf db 23 bd ce dd e8 3d 20 d9 3f 3e b1 2d 44 3e
       -0.040004488 0.11370431 0.1873517 0.19158055
000280 25 4e 9a 3d a3 d6 55 be f9 ba 12 be ff e3 39 be
       0.07534436 -0.20882659 -0.14329137 -0.1815338
000290 fd e4 27 3e 1d 8d 94 3d 1e 87 fe 3d 7c 5a 0c bd
       0.16395946 0.07253478 0.12428115 -0.03426598
0002a0 68 dd 93 bd 23 17 42 3e 2e a0 5c bd 49 39 6b 3e
       -0.07219964 0.18954138 -0.053863697 0.22971071
0002b0 b6 3f 95 3e 58 c1 14 be 9c 24 79 3e 25 c5 34 3d
       0.2915017 -0.1452688 0.24330372 0.044133324
0002c0 25 35 b6 3e 60 6f 0c 3e 80 3d ea bd ff f7 7a 3e
       0.3558742 0.13714361 -0.114375114 0.24508666
0002d0 c3 d0 8c 3d a0 89 5f bd 88 2c 88 3d 2c 70 e0 3c
       0.06875756 -0.05457461 0.06649119 0.027397238
0002e0 f3 a9 bd bc 11 5a 9c 3b ae 49 9b 3b d6 e0 86 bd
       -0.023152327 0.004771479 0.004739008 -0.06585853
0002f0 5f c3 26 3e 78 52 15 3e 38 92 48 bc ed 19 05 3e
       0.16285466 0.1458224 -0.0122418925 0.12998171
000300 46 7a 02 bd c5 cf af 3d cd a6 09 3c c2 48 52 3e
       -0.03185489 0.08584551 0.008401585 0.20535567
000310 f5 36 ed 3d 89 8b f2 3d 2f fa 4a 3d 01 bb 83 bc
       0.11582748 0.118430205 0.049555 -0.016080381
000320 20 92 d4 3d 01 ed 5f bb dc 29 e8 bd 22 89 85 3e
       0.10379434 -0.0034168365 -0.11336109 0.26081187
000330 6d f7 36 3d 9b c5 c1 3d 8c cd b4 3d 13 bd 7a 3d
       0.044669557 0.094615184 0.088282675 0.06121547
000340 51 27 9e bc 24 cf bb bc 18 74 86 3d 2f 82 30 3e
       -0.019305857 -0.02292592 0.06565112 0.17237161
000350 7c 15 0f 3e 2c b1 3f 3e 19 a6 05 3e 23 e1 5e 3e
       0.1397304 0.1871993 0.13051642 0.2176557
000360 97 fb 24 3e e6 bb 62 3e e2 56 b1 3e 39 ee 45 3e
       0.16111599 0.2214199 0.346366 0.19329156
000370 31 7a 25 bc 58 b1 3b be 31 9d e1 3d c9 4d 0d 3e
       -0.0100999335 -0.1832937 0.1101631 0.13799204
000380 eb bb 40 bd c1 1c 36 3e df 81 0b 3e a5 e2 94 3e
       -0.047054213 0.17784406 0.1362376 0.29079166
000390 af aa 03 bd ac 85 91 3c 8f 52 37 bd cb a1 56 bf
       -0.0321452 0.017763935 -0.04475647 -0.83840626
0003a0 78 9a c0 3d d4 d4 e1 3d d0 87 dc 3d 13 2a 9c 3d
       0.094044626 0.11026922 0.10768092 0.076252125
0003b0 45 25 1a 3e 00 63 8d 3d 90 e8 37 bb f7 5b c5 3d
       0.1505328 0.069036484 -0.0028062202 0.096366815
0003c0 9f f1 71 3e 30 d8 e7 3d 4a 74 88 3d 7f 4a 0d 3e
       0.23627327 0.11320531 0.066628054 0.13797949
0003d0 4e 25 e8 3d 26 51 5b 3d 3e 2a 94 bd ba f3 48 3d
       0.1133524 0.053544186 -0.072346196 0.04906056
0003e0 26 14 82 3e 1e 09 52 3d b4 32 2d 3e fa a5 eb 3d
       0.25405997 0.051278226 0.16913873 0.11506267
0003f0 2b 90 07 bd 0d a5 4f 3e e7 18 18 3e b3 39 5b 3e
       -0.033096474 0.20277806 0.1485325 0.2140873

fc1.bias f4 [64]
000000 68 e4 ac 3d 29 8a 87 3c d3 7f 74 bd 64 8c 09 3d
       0.084420025 0.016545372 -0.059692215 0.033581153
000010 aa 72 a2 3c 16 58 47 bd 10 d0 77 3e 3c 0e 72 3e
       0.019830067 -0.04866799 0.24200463 0.23638242
000020 c0 ef 05 bb f4 36 23 3e 06 5f ea 3d ed 58 7f 3c
       -0.0020437092 0.15938932 0.114439055 0.015585166
000030 f2 c8 e6 3d 93 60 1d be 47 0b 1b 3e 98 6e bf bd
       0.11268796 -0.15368871 0.1514102 -0.09347266
000040 a6 10 19 3e b7 0e 1f 3e 69 f7 10 bd 86 5e 72 bd
       0.14947757 0.15532957 -0.0353922 -0.059172176
000050 ce 50 8c bd 98 10 e9 bd a3 44 6b 3e d8 88 ae 3d
       -0.0685135 -0.11380118 0.22975402 0.085221946
000060 e6 b2 ef 3d 43 35 2f bd ef 59 03 be 55 49 d3 3d
       0.11704044 -0.042775404 -0.12827276 0.10316721
000070 94 cf d7 3c 71 5d 5f bd 2a a7 6f bd ae 86 17 3e
       0.026344098 -0.054532472 -0.05850903 0.1479747
000080 0b 1a 9b bd ec be 62 3e de 09 0a 3d a4 e9 f4 bd
       -0.07573327 0.22143143 0.033700816 -0.11958626
000090 c2 ea 21 3e ad fb fb 3d 75 db aa bd 45 9c ab 3d
       0.15812209 0.12303863 -0.08342639 0.083794154
0000a0 4e ea af bc bf 20 7e 3e 27 89 b7 3a 5d 1b c3 bc
       -0.02147403 0.24817179 0.0014002667 -0.023816759
0000b0 c0 f4 80 3e c5 81 53 3d 9c 7c 0f be ca 5b c0 3d
       0.2518673 0.05163743 -0.14012378 0.093925074
0000c0 82 a1 10 bd 55 25 0b 3e 51 39 f1 bd 7c 81 57 bb
       -0.035310276 0.1358846 -0.1177851 -0.0032883575
0000d0 e9 b2 8d 3e 8f 6f 4c bd 89 5b 11 3e 4d 24 b7 bd
       0.2767556 -0.049911078 0.14195074 -0.08942471
0000e0 78 13 d0 bd f6 14 b3 3d f7 e8 ce bc 85 20 78 3e
       -0.10159963 0.08744232 -0.02525757 0.24231155
0000f0 0c 4d 55 bd 39 d8 bb bd 50 43 2b be 9a 12 5c 3e
       -0.05207543 -0.091721006 -0.16724896 0.21491471

fc2.weight f4 [32, 64]
000000 05 9c f3 bd 58 48 4f bc 50 53 89 bd 79 36 8f 3d
       -0.11894993 -0.012651525 -0.06705344 0.06992812
000010 52 d5 14 bd d3 ff 30 3c fb 35 0f be 1b 21 9b 3d
       -0.03633625 0.010803181 -0.13985436 0.07574674
000020 9d 0e 86 3c 70 2f de bd 89 f4 23 3d cf 31 b3 3d
       0.01636439 -0.10848892 0.04002813 0.087497346
000030 05 f3 86 bc 70 a5 15 bd e0 57 dd bd 8b 88 28 bd
       -0.016473303 -0.036534727 -0.108077765 -0.041145843
000040 80 39 b3 bd 4e 15 f5 3b f9 5b 87 3d 8e e7 00 be
       -0.08751202 0.0074793464 0.06609339 -0.12588331
000050 d9 a2 93 bd 17 41 89 bc 18 86 27 3d 78 28 18 bd
       -0.07208795 -0.01675467 0.040899366 -0.03714797
000060 92 1e 85 bd a4 b4 87 bd a6 2a 03 be 0b 4f b7 3d
       -0.064999714 -0.06626251 -0.12809238 0.08950623
000070 ef 97 4d bd eb 24 bf bd 4a 7d 03 3d d9 82 13 be
       -0.050193723 -0.093332134 0.032101907 -0.14405383
000080 65 59 db bd 54 bd 90 3d 17 b9 12 3d ef 79 cc bd
       -0.1071041 0.070673615 0.035821047 -0.099841945
000090 34 b1 c2 bd 29 3a bc bd 78 e1 05 be d3 9a d4 bd
       -0.09506455 -0.09190781 -0.13074291 -0.10381093
0000a0 9a 04 f0 bd 29 b9 86 bd 72 3f b4 3d 8c e5 7d bd
       -0.11719628 -0.06578285 0.08801164 -0.06198649
0000b0 a6 df e1 bc aa 3c 95 3d dd aa f0 3c 27 f9 de bd
       -0.027572464 0.072869614 0.029378349 -0.10887366
0000c0 f2 a7 3c 3c 7f 74 a5 3d e1 b0 b3 3d 15 b8 02 be
       0.011514651 0.080788605 0.08773971 -0.12765534
0000d0 56 f4 ce bd b0 68 39 3c c4 d1 2f bc a1 9d bb bd
       -0.10105197 0.011316463 -0.010731164 -0.09160925
0000e0 aa 15 b1 bd 5c e0 b4 3d 84 52 ac bd 58 32 9d bc
       -0.0864671 0.08831856 -0.08414176 -0.019189045
0000f0 10 76 e3 bd 17 70 99 bd 2d 9e a5 bd 53 b4 0e bd
       -0.11106503 -0.074920826 -0.0808681 -0.03483994
000100 e6 66 95 bc ce 44 68 be 2d aa 4a bd 7e 6e ab 3c
       -0.018237542 -0.22682497 -0.0494787 0.02092671
000110 5a 73 85 3e c0 60 50 bd 8c 79 0a 39 70 02 e8 be
       0.2606457 -0.050873518 0.00013205985 -0.4531436
000120 bb c4 d5 bc 68 c9 d2 bc b2 5e ca 3d ff 1d 60 be
       -0.026094785 -0.025730804 0.09881343 -0.21886443
000130 e5 3d 59 bd d6 50 28 bb 57 b9 91 3d 44 41 a9 bd
       -0.053037543 -0.0025682948 0.07115429 -0.082644016
000140 46 01 94 3d 5d b9 0d 3e 03 83 08 3f c6 fc 80 3d
       0.072268054 0.13840242 0.5332491 0.06298213
000150 12 88 42 3d be 8e a0 3d f5 2e 80 3d 16 9b 00 3e
       0.047493048 0.07839726 0.06258956 0.1255916
000160 54 31 d3 3c dc e5 3c be cd 3e d6 3d c6 42 f2 bc
       0.025780357 -0.1844706 0.10461197 -0.029572856
000170 ee 70 86 3c b3 78 36 bd a5 d9 b9 bd 3d 49 09 3e
       0.016411271 -0.0445487 -0.090747155 0.13406844
000180 f3 a4 ca 3c 9f b7 a3 bd 5d 7d 5a bd 8e 3a 49 3d
       0.024736857 -0.07994007 -0.053342212 0.049128108
000190 12 a5 d8 bd 7f f3 42 3d 10 40 50 3e b5 7c 6c 3d
       -0.1057836 0.047595497 0.20336938 0.057736117
0001a0 d1 74 b6 3d a5 6a 39 3d 22 23 c2 be c0 da 1e 3f
       0.08909 0.04526772 -0.3791743 0.62052536
0001b0 69 4e b7 be 3d bd 2b be b5 f2 08 3e 83 a0 4a be
       -0.3580201 -0.16771407 0.13373835 -0.19787793
0001c0 dc 82 0a 3d 7d 05 bc 3d 7b 10 17 3e dd 16 d5 be
       0.033816203 0.09180734 0.1475238 -0.41619006
0001d0 6f 14 6c bb 8f 79 a2 bd 37 2a 9a 3d d5 67 30 3e
       -0.0036022922 -0.07933342 0.07527583 0.17227109
0001e0 1f 44 05 3e 6a 32 88 3d b4 1d 84 3d 56 78 9e bd
       0.13014267 0.06650241 0.06450978 -0.07737796
0001f0 73 47 9c bd 7f be 35 3d dc bf 07 3e 4c 5f 5f 3d
       -0.07630815 0.044371124 0.13256782 0.05453424
000200 b2 09 1e bc 67 06 17 3d af fb 81 3d 0f 56 fc bd
       -0.009645866 0.03687134 0.06346833 -0.12321102
000210 1d d2 e1 bd 0b c6 02 be 2c c7 eb bd d0 60 6a bc
       -0.11026404 -0.1277086 -0.115125984 -0.014305308
000220 1e 9b 85 bd 43 f3 70 bd 78 6c cc 3d 26 31 a2 3d
       -0.06523727 -0.058825742 0.09981626 0.079195306
000230 0a d4 08 bd c4 ea f6 bb 11 fc 26 bd 74 dd 62 3c
       -0.03340534 -0.0075353105 -0.040767733 0.013846744
000240 04 ea 88 bc 36 66 10 bd de d0 af bd f5 ec ca 3c
       -0.01671315 -0.035253726 -0.0858476 0.024771193
000250 c2 98 1e 3d 4e b4 c4 3c 07 13 fa bd 28 d0 16 be
       0.0387199 0.024011757 -0.122106604 -0.14727843
000260 8d d0 bd 3d 24 fd ac 3a e2 37 6b 3d 03 6a bb bc
       0.092682935 0.0013198 0.05742634 -0.022877699
000270 ea a6 2b 3d 4b 45 fe bc ea 35 00 be ec 76 17 be
       0.04190723 -0.0310389 -0.12520567 -0.14791459
000280 58 96 95 bd ac 19 d5 bd ca 38 6e bd 76 71 f9 3d
       -0.073040664 -0.10405287 -0.058159627 0.12179844
000290 14 a8 c8 3d e7 20 b8 3d 6d b7 0e 3d ce 0f e2 bd
       0.09797683 0.089906506 0.034842897 -0.11038171
0002a0 7f 5e cc bc 63 33 00 be e1 8e 16 3c e1 ef 85 3c
       -0.024947403 -0.12519602 0.009189338 0.016349735
0002b0 d2 82 05 be 2f 34 83 bd 81 cc 24 3d f6 6c 8e bd
       -0.13038185 -0.064064376 0.040234093 -0.069543764
0002c0 61 bc b7 3d 79 e3 7f 3d 6b e4 e6 bc e5 8c a7 bd
       0.08971477 0.062472794 -0.02818509 -0.081811704
0002d0 c0 13 bb 3b 92 c8 4d bb 5c a9 4a bc 0d 96 69 3d
       0.0057091415 -0.0031400067 -0.01236948 0.057027865
0002e0 20 ab 93 3c 69 43 bb 3b 7d bd 92 bd 0c 58 fc bd
       0.018025935 0.005714823 -0.07165048 -0.12321481
0002f0 8a bf b6 3d 03 0f c0 3d 90 0f 00 ba 9a c2 da bd
       0.08923252 0.09377863 -0.00048851315 -0.106816486
000300 29 cd 84 3f 11 de c7 3e 7e 6b 01 3e ae ca a1 be
       1.037511 0.3903661 0.12638661 -0.31599945
000310 1b 18 dd bd 28 4b 90 3d 13 33 d2 bb 02 1d 30 bc
       -0.107956134 0.07045585 -0.00641478 -0.0107491035
000320 16 d1 10 3e 80 d2 5f be 6b fb 36 3d 0b c7 03 3e
       0.1414226 -0.21857643 0.044673365 0.12868898
000330 04 8f a3 3d 6d a1 16 3e 70 ce 61 bc 28 b0 76 3d
       0.079862624 0.14710017 -0.013782129 0.06022659
000340 22 2e b4 3d 30 61 a9 bc f3 73 b1 be f3 6e 33 3d
       0.08797862 -0.020676225 -0.34658775 0.04380698
000350 c1 53 87 bd a3 f3 b6 be 9e a3 06 3e 5c 43 c8 3b
       -0.06607772 -0.35732755 0.13148353 0.0061115455
000360 fd 16 9f 3c 18 d1 b8 bc c3 0d 2d be b4 fa d9 bd
       0.019420141 -0.022560641 -0.16899781 -0.10643521
000370 ec 54 91 bd fa 08 ce bd 82 28 8c bd 99 85 0d be
       -0.07096276 -0.10060306 -0.06843664 -0.13820495
000380 9c e5 4d 3c 77 62 24 3e 2f e4 0f 3e d8 12 98 bd
       0.01256695 0.16053186 0.14051889 -0.07425469
000390 53 89 d1 3d 0e b1 81 bd 0d c9 05 be f4 fe 55 3e
       0.10231271 -0.063325986 -0.13064976 0.20898038
0003a0 77 c5 1b be df 00 a5 bd c9 88 d8 3d 1a 1b cd be
       -0.15212046 -0.08056807 0.10572965 -0.4005974
0003b0 41 7d 85 be c7 52 79 3e 33 1d 26 3e ba cf a7 bd
       -0.26072124 0.24347983 0.16222076 -0.081939176
0003c0 34 59 28 3e a9 f3 2f 3e 71 83 e8 bd 96 46 b9 3e
       0.16440278 0.17182793 -0.113531955 0.36186665
0003d0 b5 f6 0a bd 93 f1 72 3d 25 32 8b bd db 50 45 bd
       -0.033926684 0.059312414 -0.06796674 -0.048172813
0003e0 d9 22 c3 bc bc 15 25 3e 42 75 a1 3c 0d 5f 38 3d
       -0.023820328 0.16121572 0.019709233 0.045012522
0003f0 32 74 21 3d 33 cf 40 be 28 92 37 be f9 08 af bd
       0.039417453 -0.1882904 -0.17926848 -0.08546633

fc2.bias f4 [32]
000000 70 71 bf bc fb c3 2c bd 5b 78 1f bd 21 2c 87 3d
       -0.02336952 -0.04217909 -0.03893314 0.06600214
000010 46 3a 04 3d 76 87 94 3e 9a 53 42 3c 21 23 34 bd
       0.032282136 0.29009598 0.0118607525 -0.043978814
000020 c1 44 b7 3d 98 1a 8d 3d b9 10 98 3d ef ff 06 be
       0.08948661 0.06889838 0.074250646 -0.13183568
000030 ec a9 82 3d 59 e1 c4 3d 6c 16 69 bd 8a 68 e5 3d
       0.06380066 0.09613294 -0.05690615 0.1120158
000040 42 ca 2b 3e 17 ec b5 bd 06 92 b6 3d ef de af 3d
       0.16776374 -0.08882921 0.089145705 0.08587443
000050 22 12 d8 b9 07 2f 8b 3e 37 3d 86 3d a5 11 57 3e
       -0.0004121224 0.27184317 0.065546446 0.21002825
000060 20 6b f0 bd 39 2d 24 3e 95 93 36 3d 6d 97 f2 3c
       -0.117391825 0.16032876 0.04457434 0.029613221
000070 ec 73 8d 3d 29 39 12 3e 96 e9 82 bd 71 67 6b bd
       0.06906876 0.14279617 -0.06392209 -0.057471696

fc3.weight f4 [4, 32]
000000 c1 ae 69 bd a0 25 82 bc 8f 06 87 3d 94 e8 07 3e
       -0.057051424 -0.015887082 0.06593048 0.13272315
000010 29 a1 33 bc 96 42 13 3d b5 46 24 be 2a d5 e2 3d
       -0.010963717 0.035952173 -0.16042598 0.11075814
000020 c8 f4 d8 3d f5 b5 55 bd 08 6b 04 3d 31 c9 f6 3c
       0.10593563 -0.05217548 0.032328635 0.030125232
000030 b0 ec 60 3e 9a e4 7e 3e 4c 07 42 3e 53 f2 df 3c
       0.21965289 0.24891892 0.18948096 0.027337229
000040 46 7f a3 3d 50 cf 07 3e f2 47 08 3f 7f 43 d6 be
       0.0798326 0.13262677 0.5323478 -0.4184837
000050 d3 bf 34 3e 1f c1 17 3e eb 35 91 3d c4 38 34 3e
       0.176513 0.14819764 0.07090362 0.1759978
000060 6a 80 04 be ee 01 59 3e f4 6a 4b 3e 4f 1d 03 be
       -0.12939611 0.21192142 0.19865018 -0.12804149
000070 6d 3c c7 3d 48 45 1d 3e e1 07 0c be 7e 50 16 3d
       0.09728322 0.1535846 -0.1367488 0.036697857
000080 40 93 ed bd d4 99 ee 3c 6e a0 23 3e d2 c1 bb 3d
       -0.11600351 0.029126085 0.15979168 0.09167828
000090 1e c2 90 bd 55 3c 01 3e cb ad 28 be 06 9e 90 3d
       -0.07068275 0.12620671 -0.16472547 0.070613906
0000a0 82 d8 4e 3e ce a4 87 3e 97 9e 59 3d 5c cd 00 be
       0.20199779 0.26492923 0.05312976 -0.12578338
0000b0 07 e8 77 3e d5 8b 81 3e 31 e8 6a 3e 64 26 cc bb
       0.24209605 0.25301996 0.22940136 -0.0062301625
0000c0 22 9b 9f 3c 9d 19 80 3d 5e f9 a4 3e e7 2f bf bc
       0.019483153 0.06254885 0.32221502 -0.023338271
0000d0 16 b6 23 be d1 66 9f 3d 94 ac 40 3e c5 ea 2f 3e
       -0.15987429 0.077832825 0.18815833 0.17179401
0000e0 32 4a 38 be 6a 21 2a 3e 15 7f c6 3e 10 a3 ad 3d
       -0.17997053 0.16614309 0.3876883 0.08478367
0000f0 fc 7a 90 3d 7d 1f 61 3e 0f af e1 3c 74 09 ba bd
       0.070547074 0.21984668 0.027549295 -0.09083834
000100 c8 92 ba 3c 6a c7 1a 3e 31 6b 1a be 12 28 92 3e
       0.022775069 0.15115133 -0.15079953 0.28546196
000110 f8 ac 27 3e a9 98 c8 3d a1 98 be bc 9b 9f 4e bc
       0.16374576 0.097947426 -0.023266139 -0.012611295
000120 12 5f 3e 3e 8e c2 12 3d 0e 7b 66 3d 48 42 91 3d
       0.18590954 0.035830073 0.056269698 0.0709272
000130 09 37 b9 3e 9e d2 07 3e 8b 76 5f 3e 92 fb a0 3e
       0.361748 0.13263938 0.21822564 0.31441933
000140 22 14 4d 3d 75 5f 8c 3e d3 d5 7b 3e 07 5b 00 bf
       0.05006803 0.27416578 0.24593286 -0.50138897
000150 11 27 05 be e8 bc 99 3a 8a 0b 6a 3e af 89 0a 3e
       -0.13003184 0.0011729272 0.22855964 0.13529085
000160 6e 37 20 be aa a8 80 bc f4 18 00 3f 4e cd df 3c
       -0.15646145 -0.015705425 0.50038075 0.027319577
000170 1d e0 15 3e 50 30 f8 3d 3c bb d7 bd fa c3 fa bb
       0.14636274 0.1211859 -0.10533759 -0.0076527568
000180 c2 c6 d8 bd e4 05 e8 3d db b6 95 bd 18 da 1d 3d
       -0.10584785 0.113292485 -0.073102675 0.03853807
000190 9b 8b e0 bd b8 5e b7 3d e9 5d dc bd 75 fb d8 3d
       -0.10964128 0.08953613 -0.107600994 0.105948366
0001a0 25 2c 74 3e 4a 2f 3a bd 13 e7 b0 3d 2b f2 aa bd
       0.23844965 -0.045455255 0.08637824 -0.08346971
0001b0 66 2c d0 3e 33 96 d8 3e 7d ab 62 3e 49 6e 7a bc
       0.40658873 0.42302093 0.2213573 -0.015285083
0001c0 5e 5f 6f bd 40 49 0c 3c 58 83 01 3e b3 fe 66 be
       -0.05844056 0.008562386 0.1264776 -0.22558098
0001d0 b1 8c 98 3e 73 92 3d 3e 9b c4 b3 be 9e c0 29 3e
       0.2979484 0.18512897 -0.35110936 0.16577384
0001e0 ca 17 a1 bd 74 77 9f bc 91 2c 04 3e df bf bf 3d
       -0.078658655 -0.01946614 0.12907626 0.093627684
0001f0 65 dc aa 3c 67 c6 d7 3e b3 ed b1 3c 42 0d 7c 3c
       0.020857045 0.42143556 0.02171979 0.01538402

fc3.bias f4 [4]
000000 5e 65 a0 3d 51 1c 37 3d 64 f2 22 3e 5b 56 9c 3d
       0.07831834 0.04470474 0.15912777 0.076336585
